{"modelTopology":{"class_name":"Sequential","config":[{"class_name":"InputLayer","config":{"batch_input_shape":[null,30,512],"dtype":"float32","sparse":false,"name":"input1"}},{"class_name":"Bidirectional","config":{"merge_mode":"concat","layer":{"class_name":"LSTM","config":{"units":30,"activation":"tanh","recurrent_activation":"hard_sigmoid","use_bias":true,"kernel_initializer":{"class_name":"VarianceScaling","config":{"scale":1,"mode":"fan_avg","distribution":"normal","seed":null}},"recurrent_initializer":{"class_name":"VarianceScaling","config":{"scale":1,"mode":"fan_avg","distribution":"normal","seed":null}},"bias_initializer":{"class_name":"Zeros","config":{}},"unit_forget_bias":null,"kernel_regularizer":null,"recurrent_regularizer":null,"bias_regularizer":null,"activity_regularizer":null,"kernel_constraint":null,"recurrent_constraint":null,"bias_constraint":null,"dropout":0,"recurrent_dropout":0,"implementation":null,"return_sequences":true,"return_state":false,"go_backwards":false,"stateful":false,"unroll":false,"name":"lstm_LSTM1","trainable":true}},"name":"bidirectional_Bidirectional1","trainable":true}},{"class_name":"TimeDistributed","config":{"layer":{"class_name":"Dense","config":{"units":3,"activation":"linear","use_bias":true,"kernel_initializer":{"class_name":"VarianceScaling","config":{"scale":1,"mode":"fan_avg","distribution":"normal","seed":null}},"bias_initializer":{"class_name":"Zeros","config":{}},"kernel_regularizer":null,"bias_regularizer":null,"activity_regularizer":null,"kernel_constraint":null,"bias_constraint":null,"name":"dense_Dense1","trainable":true}},"name":"time_distributed_TimeDistributed1","trainable":true}},{"class_name":"Activation","config":{"activation":"softmax","name":"activation_Activation1","trainable":true}}],"keras_version":"tfjs-layers 1.0.4","backend":"tensor_flow.js"},"weightsManifest":[{"paths":["weights.bin"],"weights":[{"name":"bidirectional_Bidirectional1/forward_lstm_LSTM1/kernel","shape":[512,120],"dtype":"float32"},{"name":"bidirectional_Bidirectional1/forward_lstm_LSTM1/recurrent_kernel","shape":[30,120],"dtype":"float32"},{"name":"bidirectional_Bidirectional1/forward_lstm_LSTM1/bias","shape":[120],"dtype":"float32"},{"name":"bidirectional_Bidirectional1/backward_lstm_LSTM1/kernel","shape":[512,120],"dtype":"float32"},{"name":"bidirectional_Bidirectional1/backward_lstm_LSTM1/recurrent_kernel","shape":[30,120],"dtype":"float32"},{"name":"bidirectional_Bidirectional1/backward_lstm_LSTM1/bias","shape":[120],"dtype":"float32"},{"name":"time_distributed_TimeDistributed1/kernel","shape":[60,3],"dtype":"float32"},{"name":"time_distributed_TimeDistributed1/bias","shape":[3],"dtype":"float32"}]}]}